…
    "weights_list = loaded_model.model.weights\n",
    "print(weights_list[0], weights_list[1])"
   ]
  },
  {
   "cell_type": "code",
   "execution_count": 9,
   "id": "101fe081-00cc-42de-9ffe-d157e3bfa933",
   "metadata": {
    "tags": []
   },
   "outputs": [
    {
     "name": "stdout",
     "output_type": "stream",
     "text": [
      "========== alpha summary ========\n",
      "----------------------------------------------------------------\n",
      "        Layer (type)               Output Shape         Param #\n",
      "================================================================\n",
      "            Linear-1            [-1, 1, 1, 128]             256\n",
      "              ReLU-2            [-1, 1, 1, 128]               0\n",
      "            Linear-3             [-1, 1, 1, 64]           8,256\n",
      "              ReLU-4             [-1, 1, 1, 64]               0\n",
      "            Linear-5              [-1, 1, 1, 1]              65\n",
      "================================================================\n",
      "Total params: 8,577\n",
      "Trainable params: 8,577\n",
      "Non-trainable params: 0\n",
      "----------------------------------------------------------------\n",
      "Input size (MB): 0.00\n",
      "Forward/backward pass size (MB): 0.00\n",
      "Params size (MB): 0.03\n",
      "Estimated Total Size (MB): 0.04\n",
      "----------------------------------------------------------------\n",
      "========== beta summary ========\n",
      "----------------------------------------------------------------\n",
      "        Layer (type)               Output Shape         Param #\n",
      "================================================================\n",
      "            Linear-1            [-1, 1, 1, 128]             256\n",
      "              ReLU-2            [-1, 1, 1, 128]               0\n",
      "            Linear-3             [-1, 1, 1, 64]           8,256\n",
      "              ReLU-4             [-1, 1, 1, 64]               0\n",
      "            Linear-5              [-1, 1, 1, 1]              65\n",
      "================================================================\n",
      "Total params: 8,577\n",
      "Trainable params: 8,577\n",
      "Non-trainable params: 0\n",
      "----------------------------------------------------------------\n",
      "Input size (MB): 0.00\n",
      "Forward/backward pass size (MB): 0.00\n",
      "Params size (MB): 0.03\n",
      "Estimated Total Size (MB): 0.04\n",
…
